coffee-shop/revenue_predictor_model.pth (torch, 13160 bytes, 5 tensors)

network.0.weight f4 [64, 6]
00000000: c36d 49bf 183e c5bf 6eef d73d aa3b 26bf
00000010: 1a6a 203f 37db 0ebf 6bdd af3f 720a ab3f
00000020: eb69 47bf 93fb 2ebf 6bfb fb3e 085f fc3e
00000030: bd46 6d3f 04b7 8f3f aaa9 2fbf 59a0 8bbf
00000040: a479 8fbf 0c1c 23bf 4c2a 533f 82bc ae3f
00000050: 3914 67bf 733d 68bf 37f6 04bf 27d5 233f
00000060: 0b3e ae3f 3007 b53f 7956 80bd bdae 3cbf
00000070: 49d1 e9bd 3a01 f6be a873 1e3f f7a7 463f
00000080: bd5d 39bf 3641 313f 01fc 273f d79f 3bbe
00000090: 6945 5d3f 34c8 d83e ff18 80bf c069 8b3f
000000a0: 7f76 953f 7ad4 37bf a35a 9e3f ff84 873f
000000b0: f033 703f 195c 6f3f 62a2 31bf 92d9 5abf
000000c0: 85da 8a3f d69d 923f 3905 3dbf 7084 813f
000000d0: 6893 42bf 87a2 22bf d40d 883f 1815 e53e
000000e0: e4d2 903f 67e3 433f 6a4b 97bf 15c6 7fbe
000000f0: c7b4 8d3f 8277 3c3f cac5 663f 25e3 1e3e
00000100: 5afe 473f 19d7 ffbe cf16 4cbf f0e5 64bf
00000110: 122f 873f e1ee 463f 2843 963f 14fe 77bf
00000120: 39fd 693e d9c1 9fbd 1411 61bf 231e 6b3f
00000130: 3c25 5d3f 611d a73f 5f52 553f af1e 7e3e
00000140: 0e1f 673f bf9e d0bd b3c1 813d 04be 873f
00000150: a734 ab3f 1daa 683f 0cfe 063f 0197 233f
00000160: 73d8 493f 04f5 44bf 7dd1 2f3f 38ea 6bbe
00000170: d86e 943f 7594 adbe a8e0 953f 674c 89bf
00000180: 5102 123f 3abc 4f3f a5fb 2dbf caef 093c
00000190: ad8f 913f 195a 88bf 3ccf 823f f815 4a3d
000001a0: df47 90bf 47c1 e03e 2028 a3bf a048 26bd
000001b0: 77d2 b23f ddbe 9c3f 21ca c1be 71bb 76bf
000001c0: 2cf1 183f 6a27 f3be e291 683f 5068 7e3f
000001d0: c6a5 2fbf 9003 1dbf 2847 59be 7082 953f
000001e0: ec21 963f b5d1 1e3f d50f 873f 6fdd 583f
000001f0: 1696 fbbe 1161 47bf ff4f 393f b660 953e
00000200: e7e0 88bf 9eca 31bf 5b87 f13e 193f 8b3f
00000210: 43d1 ab3f b2c9 283f 84bc 5d3f ab84 633f
00000220: d45b 743e aa86 9a3f 72c5 623f a6e7 2f3f
00000230: b45a 99be 5191 8dbf a5d1 1f3f ce5f 0dbf
00000240: c4c5 a33f 8c4e ab3f 5d6e 5d3f 734b 43bf
00000250: 8d49 0b3f 421b 8d3e aaab 583f 3bcb da3e
00000260: ef55 08bf 7e62 ba3e 5ca7 213e 3db5 333f
00000270: a377 2b3f 3fd4 043f 80e1 863f 7d72 e4be
00000280: 9d14 9cbf 7253 a93e c4aa 5f3f b304 9c3f
00000290: a9c5 8dbf 74cb 8f3e 2968 423f a0d8 73bf
000002a0: 746f 593f c3f3 6a3f b097 7f3f 25f7 833f
000002b0: 999a 6c3f 5510 843c e3bb ab3f 16eb 663f
000002c0: b944 60be a56c 53bf 2203 063f d682 efbe
000002d0: 7652 753f 7472 363f eb5c 77bf eec9 c9bd
000002e0: b882 5f3f e8d3 6bbf 3cb6 633f de79 913f
000002f0: 78a0 3dbf 4134 eebe f25c 883e 5ffa 9b3f
00000300: dea7 96be 065d 15be eef0 973f fdd0 93bf
00000310: 01c2 1dbf fe6e 5ebf 0a8f 4c3f bcab 4c3f
00000320: a03d 463f 719a e63e 911c 98bf 5526 2bbf
00000330: b283 3d3f 9fac 8b3f 05c1 403f 72e2 acbe
00000340: f05a 523f f5ab 1abf 0556 7e3f 1f77 263f
00000350: e35c 883f 3e9d 25bf 1524 223f f3aa 9e3f
00000360: e3f0 e93e 7dd8 4f3f facf 8a3f 0945 d33e
00000370: e95e 713f aa8a a3be e536 353f 2031 8f3f
00000380: 7f95 4ebf 1af6 afbe f779 613f 014c e73e
00000390: c7e5 4b3f 81d2 debb f019 6fbf caf5 0abf
000003a0: e9e3 49bf bb9e 9fbf 7f89 bd3f 8d4f b53f
000003b0: d2e3 7f3e f279 14bf a32e db3e f577 1b3f
000003c0: ebfc 00bf b131 d3be f12c 963f 7a14 7d3f
000003d0: e897 a93e abac a33f 8181 9f3f 6090 b33f
000003e0: 479e cabe a973 cbbd b8a0 48bf c3b9 a13e
000003f0: 26b6 453f 8044 833f b482 55bf 0544 753f
-0.7868311 -1.5409575 0.105437145 -0.6493479 0.626619 -0.55803245 1.3739446 1.3362563
-0.77895993 -0.6835262 0.49215254 0.49291253 0.92686063 1.1227727 -0.6861826 -1.0908309
-1.1208997 -0.6371467 0.82486415 1.3651278 -0.9026523 -0.90718764 -0.51938194 0.6399712
1.3612684 1.4142818 -0.06266493 -0.7370413 -0.11416871 -0.4804781 0.6189523 0.77600044
-0.7240866 0.6924013 0.656189 -0.18322693 0.86434036 0.42340243 -1.0007628 1.0891647
1.1676787 -0.7180859 1.237141 1.0587462 0.9382925 0.93499905 -0.693884 -0.85488236
1.0847937 1.1454418 -0.73836094 1.0118542 -0.76006174 -0.6352925 1.062922 0.44742656
1.1314359 0.76518863 -1.181989 -0.24977906 1.1070794 0.73619854 0.9014555 0.15516336
0.78122485 -0.49968794 -0.79722303 -0.89413357 1.056124 0.7770825 1.1739244 -0.9687207
0.22850503 -0.078006454 -0.87916684 0.9184286 0.8638494 1.3055841 0.83328813 0.24816392
0.9028176 -0.101865284 0.06335773 1.0604863 1.3375443 0.9088457 0.52731395 0.6390229
0.788459 -0.76936364 0.6867903 -0.23038566 1.1596327 -0.33902326 1.1709185 -1.0726441
0.57034785 0.81146586 -0.67962104 0.008418987 1.1371971 -1.0652496 1.0219493 0.049337357
-1.1271933 0.4389746 -1.274662 -0.040596604 1.3970479 1.2245747 -0.37849525 -0.9637976
0.59743 -0.47491008 0.908476 0.9937792 -0.68612325 -0.6133356 -0.2121855 1.1680431
1.1729102 0.6203874 1.0551707 0.8471288 -0.49137944 -0.77882487 0.7238769 0.29175347
-1.0693635 -0.69449794 0.4717358 1.0878631 1.3423237 0.6593276 0.86615777 0.8887431
0.23863155 1.2072346 0.8858253 0.6871284 -0.29952013 -1.1059972 0.6242927 -0.5522431
1.2794728 1.3383346 0.86496526 -0.76287 0.54409105 0.2755986 0.8463694 0.42733178
-0.53256124 0.3640327 0.15786499 0.7019842 0.66979426 0.5188636 1.0537567 -0.44618598
-1.2193791 0.33071476 0.8736994 1.2188934 -1.1075946 0.2808491 0.75940186 -0.9525242
0.8493569 0.917782 0.9984083 1.0309798 0.924234 0.016121069 1.3416713 0.9020246
-0.21901216 -0.82587653 0.5234853 -0.46779507 0.9582895 0.7126839 -0.96626157 -0.09852968
0.87308836 -0.9212022 0.8894994 1.1365316 -0.7407298 -0.46524242 0.26633412 1.2185782
-0.29424948 -0.14586267 1.1870401 -1.1548153 -0.6162415 -0.8688811 0.7990576 0.79949546
0.7743778 0.45039704 -1.1883718 -0.66855365 0.74029076 1.0912055 0.75294524 -0.33766514
0.8217001 -0.60418636 0.99350005 0.65025514 1.0653347 -0.6469306 0.63336307 1.239592
0.45691594 0.8118971 1.084472 0.41263607 0.94285446 -0.3194173 0.7078689 1.1186867
-0.8069686 -0.34367448 0.8807673 0.45175174 0.7964749 -0.0067999964 -0.9339895 -0.54281294
-0.7886339 -1.2470316 1.4807585 1.4164902 0.2498925 -0.57998574 0.42809018 0.60729915
-0.5038592 -0.4124885 1.1732465 0.9885937 0.33123708 1.2787069 1.2461396 1.4028435
-0.3957388 -0.0993417 -0.7837024 0.31587037 0.7723106 1.025528 -0.8340256 0.95806915

network.0.bias f4 [64]
00000000: 4166 cd3f 7c40 c13f de22 7b3f 10b3 6b3f
00000010: 706a a83f 2a1a c63f 0c65 a03f 12eb b73f
00000020: 4ae7 8e3f 0935 ac3f 7180 b73f 22bb 813f
00000030: 92d3 c83f 9b08 ca3f 564a 793f 4187 7d3f
00000040: 7696 c93f 6d5a 7b3f 4cc4 a03f 29de d23f
00000050: 2331 863f 0346 b93f 4cf6 b03f 1363 bb3f
00000060: ccc0 523f 16d7 c33f c2e1 b83f 2b6f 463f
00000070: a0bb bc3f 0e58 933f 6d59 9d3f d0e0 ca3f
00000080: d8eb 863f a40f 963f 342c c33f 735a 673f
00000090: 5f65 cd3f 2792 b93f c9a8 b73f 5900 4c3f
000000a0: 49d8 a73f f5b8 993f 6b8d a63f a9e8 bf3f
000000b0: ba5f a83f b4a3 783f f8d5 7b3f 6de8 683f
000000c0: f3c4 4d3f b875 a93f 8d67 c43f ae9a a33f
000000d0: 6803 8e3f 8601 6e3f a957 bf3f 9add 913f
000000e0: 4bd1 b93f cd7e d23f 8d5d b73f 1fe2 a33f
000000f0: cfb9 753f c6d5 a23f d3c4 793f 3a8e 943f
1.604683 1.5097804 0.9810008 0.920701 1.3157482 1.5476735 1.2530837 1.4368613
1.1164334 1.3453685 1.4336072 1.0135233 1.5689566 1.5783876 0.9737905 0.99034506
1.5749042 0.98184854 1.2559905 1.6474048 1.0483745 1.4474491 1.3825164 1.463961
0.82325435 1.5300014 1.4443896 0.7751338 1.4744759 1.1511247 1.2292916 1.5849857
1.0540724 1.1723523 1.5247865 0.9037239 1.6046561 1.4497727 1.4348384 0.7968803
1.311288 1.200957 1.3011907 1.4992877 1.3154213 0.9712479 0.98373365 0.90979654
0.80378646 1.323905 1.5344101 1.278158 1.109479 0.92971075 1.4948627 1.1395752
1.4516996 1.6444947 1.4325424 1.2803382 0.95986646 1.2721488 0.97565955 1.1605904

network.2.weight f4 [32, 64]
00000000: 6dc9 7cbe f709 80be 831c 2dbe b1ae ebbe
00000010: 0b44 d3be 4a1d 97be 686c c43d d296 153e
00000020: 16b8 3dbe 2ad5 c13e 8acf 9b3d 850d f8bd
00000030: 82d0 22bd a64b 663e f4f9 4d3e 042a f33e
00000040: e204 68be bc1e 353f 814b b23c 4ab7 a9be
00000050: 3ea6 963e 247e e23e 9896 aa3e 90df 9e3c
00000060: 90f8 c0bd 5765 9cbd 01b6 1abe d761 aa3c
00000070: fcc3 cb3c 6144 8e3e d135 95bc 1c2f e0be
00000080: c7f2 7bbc a197 8e3d c6d7 c7be eb47 c13e
00000090: fe5c 14be a0f0 05bf 9359 8b3e de7a 67be
000000a0: ca54 43bd 8e63 56bf 60c7 a0be 1dea 683c
000000b0: 684a 0fbe 5a68 e53e f2b7 9b3e 7908 c4ba
000000c0: eab5 b43e c7ee c03d 6b0d 823d da21 683e
000000d0: 229d b53e 0523 123f 0c04 5f3d 17f1 0f3e
000000e0: 34b4 083e 6df9 42bd 14ff 28be d112 b03e
000000f0: acbb b03d cf74 cc3e 16bf 0b3f 04a2 15bf
00000100: b71b a6bd e897 efbd 6afd 04be 66d3 9abd
00000110: 2fb4 c5bc cb53 903b cf9f a5bc 660c 20bd
00000120: 9f98 47bd d46c bdbd bb28 f4bd 465c bebd
00000130: 0add 7b3d f1f1 f7bc 39c1 debd 50d6 46bd
00000140: 49b8 b43c 51ee 7cbd 30c4 e23d ec3b bf3d
00000150: e191 e43d f3cd 8f3d 0063 66bd 4174 8cbd
00000160: 4ecd 17bd e200 1e3d 307b 5cbd 7a77 cfbb
00000170: c1fd d8bd 8810 c63d 0daa e6bd cca6 153b
00000180: b704 bbbd 340e a33d 884d cebd 9621 25bd
00000190: cf6e 513d eaf4 123d e981 9fbd 54bd a03d
000001a0: 8e91 1c3d d290 39bd 0cc4 bdbc 3327 fbbd
000001b0: f711 c4bd d0ae 77bd 5644 d33d 00e0 3f3b
000001c0: e6c1 883d b3dc 00be dc0b a9bc 3d28 e2bd
000001d0: 8b29 dc3b 33e4 dbbc cb22 febd 54bb a6bd
000001e0: 45f7 c8bc 3ac2 3abc bd06 92bd a2ac 7abd
000001f0: 9053 e6bc 9aab 8dbd 3b8a b33d e9e3 0ebd
00000200: ef6c 973c 23e4 743d 66d3 20bd 5970 f03b
00000210: 5e60 cbbd 13e7 8fbd 7332 c2bd 7b72 a7bd
00000220: 3577 b9bd ae79 92bd b4aa 0bbe 843c 3c3b
00000230: 35de 0fbe 6eb5 e33c de08 ffbd 92aa 38bc
00000240: 09df b0bd ca60 673c 28d2 293d 9a06 d6bd
00000250: 7763 50bd 599f 8abc 27e9 a9bb dc80 83bd
00000260: 5b1b 343d 8a7e ae3d 147d 50bd 5f3f 4cbd
00000270: abb3 79bd 605f ba3d c550 693c 008d b33d
00000280: 5fb9 cdbd 4321 82bd ae90 763d f2b3 64bc
00000290: 3274 2f3d 0f26 693d 0187 293d aac9 42bd
000002a0: d93a 1cbd 8026 023c 375e 8fbd 4ba5 a6bc
000002b0: 8007 a03d 86bc b1bd a7a4 0ebe 305d b93d
000002c0: a5a2 96bc 5b54 5b3d cfe2 8c3d 6082 533b
000002d0: 2f57 c9bd 332b febd c6d4 78bd 57c4 18bd
000002e0: 9335 8abd 30ca 5ebd 0a2c b5bd d986 b6bc
000002f0: 8a2a 133d b2d4 c13d e2ae 3b3c 4ce0 eebd
00000300: fa2b babd 0f2b 05bd 9244 dcbd 8d2f bebd
00000310: 0283 883d 84c6 c0bd 50e1 a5bd 2bb9 ae3c
00000320: 5ef5 5f3d 6fdd 12bd ca27 1cbd d05b 043d
00000330: 48ff eebc 0910 c33d bcc8 05be ec0e 94bd
00000340: 6cb7 833d b2d7 c9bd a96c 5cbc cb0e af3d
00000350: ece6 953d 0d13 9a3d 8edf 96bd b6d0 ba3c
00000360: 2bfc 06bd 5f42 94bd 5791 bbbd 9f4d a03d
00000370: 2315 cb3d 01a4 78bc d33f e9bd 5897 58bd
00000380: 4300 5abd 26bd a0bc f925 3fbc 5319 8d3d
00000390: 6f10 fdbd 9920 83bd a1a2 adbc ae60 0dbe
000003a0: 5226 973c afde efbd 357f 9ebd 39b4 be3b
000003b0: 74b4 953c 554f c3bd debe fdbc f5e8 6eb9
000003c0: 77e8 cd3d fc1d 4d3c 88ff cb3d f870 f7bd
000003d0: 8653 eebd 528d 903c 23c8 a63d a849 cbbd
000003e0: a5d4 0e3d 19b1 1cbd b0f2 bbbd 323e 18bd
000003f0: 6414 08bd 2b94 8dbd 6fb5 803d 7439 d1bb
-0.24686213 -0.25007603 -0.16905408 -0.46031716 -0.4126285 -0.29514533 0.09590989 0.14608315
-0.18527254 0.37857944 0.07607944 -0.12111954 -0.03974963 0.22489795 0.20114881 0.47492993
-0.22658113 0.7075002 0.021764519 -0.3314765 0.29423708 0.44236863 0.3331802 0.019393712
-0.094224095 -0.076365165 -0.15108491 0.020798607 0.024873726 0.27786544 -0.018214138 -0.43785942
-0.015377707 0.06962515 -0.3903181 0.37750182 -0.14488599 -0.5232029 0.27216777 -0.22605464
-0.047688283 -0.8374566 -0.3140211 0.014215973 -0.13993227 0.44806176 0.30413777 -0.0014956138
0.3529504 0.09420543 0.063502155 0.22669163 0.35471445 0.57084686 0.05444722 0.14056812
0.13349992 -0.047601152 -0.16503555 0.34389356 0.086295456 0.39932868 0.5458845 -0.5845034
-0.08110755 -0.11698896 -0.12987295 -0.07559852 -0.02413377 0.00440452 -0.020217804 -0.039074324
-0.048729535 -0.09249273 -0.11921831 -0.092949435 0.061490096 -0.030266734 -0.10876698 -0.048544228
0.02206053 -0.061750714 0.11072576 0.09337601 0.11160637 0.070217036 -0.056246758 -0.06858111
-0.03706103 0.03857506 -0.05382842 -0.0063313814 -0.10595275 0.09671122 -0.11262903 0.0022835014
-0.09131759 0.079616934 -0.10073382 -0.040315233 0.051131066 0.0358781 -0.0778845 0.078486115
0.03822475 -0.045304127 -0.023164771 -0.12263336 -0.09573739 -0.06046945 0.103157684 0.0029277802
0.06677608 -0.1258419 -0.020635538 -0.11042831 0.0067188195 -0.026842212 -0.1240898 -0.08141199
-0.02453197 -0.011398846 -0.071301915 -0.06119979 -0.028116018 -0.06917496 0.087666 -0.03488532
0.01848456 0.05978788 -0.039264105 0.0073376116 -0.0993049 -0.07026496 -0.09482279 -0.08176132
-0.0905594 -0.07152115 -0.13639337 0.0028722594 -0.14049609 0.027796473 -0.12452863 -0.011271136
-0.086362906 0.014122197 0.041460186 -0.10450478 -0.050876107 -0.016921686 -0.0051852646 -0.06421062
0.0439714 0.08520229 -0.050900534 -0.049865123 -0.06096236 0.091002226 0.014240448 0.08767128
-0.10045122 -0.063540004 0.06019657 -0.013958918 0.04283542 0.05692106 0.041388515 -0.047555603
-0.03814206 0.007943749 -0.07000392 -0.02034249 0.078139305 -0.08678536 -0.13929997 0.09050977
-0.018388102 0.053547245 0.06879198 0.0032273754 -0.09831082 -0.12410583 -0.06074979 -0.03729662
-0.067485 -0.05439204 -0.088462904 -0.022281097 0.03592924 0.094643965 0.0114552695 -0.11663875
-0.09090419 -0.032511767 -0.10755266 -0.09286413 0.06665613 -0.09412864 -0.080996156 0.02132853
0.05467736 -0.035855707 -0.038123883 0.03231412 -0.029174462 0.09524543 -0.13064855 -0.072294086
0.06431469 -0.09855594 -0.013453641 0.085477434 0.073194355 0.07523165 -0.073668584 0.0228046
-0.03295533 -0.07239222 -0.09158581 0.07827305 0.09916141 -0.01517582 -0.11389127 -0.052878708
-0.053222906 -0.019621443 -0.011666768 0.06889596 -0.1235665 -0.06402702 -0.021195712 -0.13806412
0.01845089 -0.117123954 -0.077391066 0.005819824 0.018274523 -0.09536616 -0.030974802 -0.00022784232
0.10054105 0.012519356 0.09960848 -0.12082094 -0.116370246 0.017645512 0.08143642 -0.09926158
0.034870762 -0.03825483 -0.09177148 -0.03716869 -0.03322257 -0.069130264 0.06284606 -0.006385023

network.2.bias f4 [32]
00000000: c3a2 03bf 3ead c8bd cfb6 66bd 2f6f 49bd
00000010: 3ed1 12bc 3fd8 243d 82a9 8f3f 78e0 8c3b
00000020: 1a7a 14be 1533 8b3f 982e 6a3f 8201 1c3c
00000030: fdca a3be fab1 763f 42c1 3dbd af96 753f
00000040: e7a1 8a3f 68c6 773f 7de0 4c3c 193e 5cbe
00000050: ee06 e4bd aa57 7f3f 838e 853f ebc9 87be
00000060: aa73 cf3b 281d 863f 1869 4bbc ea94 533f
00000070: 34e3 583f 46db 7a3f 340f 7b3f e11b 8a3f
-0.5142023 -0.09798668 -0.056326684 -0.0491783 -0.00896102 0.04024529 1.1223605 0.0042992197
-0.14499703 1.0874964 0.91477346 0.009521844 -0.31990805 0.9636532 -0.046326883 0.9593305
1.0830659 0.9678712 0.012504694 -0.21508063 -0.11134134 0.9974314 1.0434116 -0.2652124
0.006330927 1.0477648 -0.012415193 0.826491 0.84721684 0.97990835 0.98070073 1.0789758

network.4.weight f4 [1, 32]
00000000: 68d6 a5bf 22cb 63bd 5f01 05be 0461 1ebd
00000010: 7f7b 23bd b506 0bbe 5be9 8c3f 4d57 05be
00000020: c211 f3bd 6983 943f 3d77 903f da2a 1ebd
00000030: a67a 91bf 286f 993f 4b12 7bbd e3e4 913f
00000040: 47af 8b3f 384e 963f 182b eebc 1408 61bf
00000050: c49f 00be 5e93 8b3f affb 953f 0b1b 90bf
00000060: 4774 45bd f653 8d3f b4ff 033b 26d7 9b3f
00000070: 3d9e 993f cfd0 9c3f f2ff a03f 8eb8 903f
-1.2956057 -0.055613644 -0.12988804 -0.03866674 -0.039912697 -0.13576777 1.1008714 -0.13021584
-0.118686214 1.1602603 1.1286389 -0.038615085 -1.1365554 1.1987047 -0.061296742 1.1397976
1.0912865 1.174262 -0.029073283 -0.8790295 -0.12560946 1.0904348 1.1717433 -1.1258253
-0.048206594 1.1041248 0.0020141425 1.2175033 1.2001415 1.2251223 1.2578108 1.1306322
